…
2021-11-25 15:41:27.916802: I tensorflow/stream_executor/platform/default/dso_loader.cc:44] Successfully opened dynamic library libcudnn.so.7
2021-11-25 15:41:29.465941: W tensorflow/stream_executor/cuda/redzone_allocator.cc:312] Not found: ./bin/ptxas not found
Relying on driver to perform ptx compilation. This message will be only logged once.
x_train_noisy shape: (50000, 516, 4, 1)
x_test_noisy shape: (10, 516, 4, 1)
x_train_pure shape: (50000, 516, 1)
x_test_pure shape: (10, 516, 1)
Model: "sequential"
_________________________________________________________________
Layer (type)                 Output Shape              Param #   
=================================================================
time_distributed (TimeDistri (None, 516, 4, 32)        64        
_________________________________________________________________
time_distributed_1 (TimeDist (None, 516, 4, 32)        0         
_________________________________________________________________
time_distributed_2 (TimeDist (None, 516, 2, 32)        0         
_________________________________________________________________
time_distributed_3 (TimeDist (None, 516, 2, 16)        528       
_________________________________________________________________
time_distributed_4 (TimeDist (None, 516, 2, 16)        0         
_________________________________________________________________
time_distributed_5 (TimeDist (None, 516, 32)           0         
_________________________________________________________________
bidirectional (Bidirectional (None, 516, 100)          33200     
_________________________________________________________________
bidirectional_1 (Bidirection (None, 516, 100)          60400     
_________________________________________________________________
bidirectional_2 (Bidirection (None, 516, 100)          60400     
_________________________________________________________________
time_distributed_6 (TimeDist (None, 516, 1)            101       
=================================================================
Total params: 154,693
Trainable params: 154,693
Non-trainable params: 0
_________________________________________________________________
Train on 50000 samples, validate on 10 samples
Epoch 1/100
 1000/50000 [..............................] - ETA: 26:35 - loss: 0.1569 - accuracy: 0.0078
…
